pretrained_model/rnn_999999.pt (torch, 625515 bytes, 18 tensors)

hidden f4 [1, 128]
-0.24908814 -0.23987378 0.043721505 -0.1332603 -0.094815336 -0.36998197 -0.15424736 -0.22259049
0.13669018 -0.17213891 -0.17488053 0.01792544 0.040920187 -0.094467945 -0.11483691 0.030246178
-0.089679934 -0.13185301 0.123240784 -0.014313031 -0.103453405 -0.066833794 0.07427885 0.2559243
-0.042710673 -0.3179201 0.4118932 0.2073043 -0.056766517 -0.19091482 -0.048237022 -0.10151305
-0.067060135 -0.12249417 0.44219413 0.114115454 -0.26015308 -0.12045984 -0.10459575 -0.19754058
-0.006327452 0.21601827 -0.15459783 0.0946838 0.2330722 0.11800353 -0.020860199 -0.08702797
0.039960057 -0.26537982 -0.17945126 -0.0026093898 0.26507497 -0.023622843 0.15476377 -0.0014469844
0.0141871115 0.019528018 -0.039787598 0.36092472 -0.29926676 0.0025760508 -0.0088677835 0.42545533
0.12298249 -0.29807708 0.065593444 0.026700959 0.073957965 -0.27351493 -0.18436116 -0.030979453
0.0489864 -0.009982748 0.046596695 -0.0010818437 -0.057495926 0.016151343 0.009907953 -0.021565719
-0.05498766 0.0940975 0.1814024 -0.25965375 -0.054249622 -0.18839958 -0.37552464 0.03308695
0.13524786 0.10124629 0.2818079 0.14717299 -0.047921676 0.07388789 -0.11518748 0.002109126
0.007795468 -0.28446344 0.040453773 0.15961538 -0.25182557 -0.18989836 -0.10812599 0.06697766
-0.12612695 -0.034458324 0.04333099 -0.05824439 -0.16605109 -0.039923936 -0.046368152 -0.14580527
-0.1692949 0.023992628 -0.011045122 -0.2979129 -0.14265598 -0.063096695 0.027284559 0.031997066
-0.18727396 -0.10465401 0.20966078 0.0195993 -0.13030702 -0.27697998 0.053152774 -0.007828911
00000000: f610 7fbe 79a1 75be 5215 333d 6375 08be
00000010: 8b2e c2bd 476e bdbe 05f3 1dbe c3ee 63be
00000020: 83f8 0b3e 2f45 30be e213 33be 5fd8 923c
00000030: ed9b 273d 6978 c1bd 9d2f ebbd d5c6 f73c
00000040: 1daa b7bd 7a04 07be aa65 fc3d 3481 6abc
00000050: 61df d3bd 28e0 88bd 821f 983d 8308 833e
00000060: 63f1 2ebd 6cc6 a2be aae3 d23e 9447 543e
00000070: 0284 68bd 2d7f 43be 2f94 45bd 13e6 cfbd
00000080: d356 89bd 39de fabd 4567 e23e 5db5 e93d
00000090: c932 85be a6b3 f6bd 4c36 d6bd 1448 4abe
000000a0: 8456 cfbb e533 5d3e e54e 1ebe 95e9 c13d
000000b0: 7baa 6e3e d6ab f13d 02e3 aabc b83b b2bd
000000c0: 28ad 233d dddf 87be 12c2 37be 4c02 2bbb
000000d0: e8b7 873e b184 c1bc 657a 1e3e bda8 bdba
000000e0: 0f71 683c 39f9 9f3c 52f8 22bd 20cb b83e
000000f0: 7e39 99be f6d2 283b 2e4a 11bc 48d5 d93e
00000100: 3ede fb3d 8f9d 98be db55 863d f8bb da3c
00000110: 4677 973d 260a 8cbe 2cc9 3cbe 9fc8 fdbc
00000120: f7a5 483d ae8e 23bc 2ddc 3e3d a7cc 8dba
00000130: d980 6bbd d24f 843c f854 223c 97aa b0bc
00000140: be3a 61bd 31b6 c03d 8dc1 393e 56f1 84be
00000150: da34 5ebd d2eb 40be c444 c0be 2f86 073d
00000160: 6a7e 0a3e 375a cf3d 2049 903e 84b4 163e
00000170: 8549 44bd 8952 973d 6ae7 ebbd 4339 0a3b
00000180: 2071 ff3b 31a5 91be dbb2 253d 3772 233e
00000190: 48ef 80be b774 42be 2971 ddbd 952b 893d
000001a0: 6c27 01be 2c24 0dbd d67b 313d ab91 6ebd
000001b0: 4c09 2abe 4887 23bd 88ec 3dbd fa4d 15be
000001c0: a45b 2dbe 308c c43c 99f6 34bc 0a88 98be
000001d0: 6914 12be d738 81bd de83 df3c 5b0f 033d
000001e0: bfc4 3fbe d754 d6bd 51b1 563e b68e a03c
000001f0: 346f 05be 52d0 8dbe b9b6 593d d544 00bc

embedding.weight f4 [72, 128]
0.4171454 0.16300553 0.44757408 0.0381816 0.3123418 -0.099654935 -0.117301606 0.046078462
-0.1966533 0.084814645 0.1951344 0.67467743 -0.21522026 -0.20207776 0.10891331 -0.27022943
-0.103567116 -0.09077764 0.56058896 0.13253044 0.18971178 -0.07094275 0.22960658 0.082651414
0.907292 -0.17575414 -0.06994149 -1.0329713 -0.1987445 0.14777878 0.029055012 -1.0059317
-0.082300894 -0.44502053 -0.22239791 0.80984944 -0.37434405 -0.19214132 0.91365296 -0.10384288
-0.2092561 -0.05569412 2.2656708 0.6556733 1.1486843 -1.7780935 -0.32532778 0.41037107
0.052603025 -0.054850735 -0.46778288 -0.4377443 0.04547596 0.15622182 0.25684515 0.63960564
0.25095254 0.21536803 0.002629398 0.0661951 0.1435735 -0.28764847 -0.021766482 -0.22693731
-0.3200145 0.51791596 0.07821687 0.0817248 -0.19865178 0.17812784 0.32518497 -0.19197437
-0.12536123 0.45021436 0.084006526 -0.10471458 -0.40404215 -0.12008337 0.034129996 0.06740714
-0.0010358227 0.0012285587 0.42225477 0.11873392 -0.24878272 0.26396635 0.25531393 0.58495945
0.61421764 0.009605415 0.16191538 -0.07421306 -0.41027883 0.18872333 -0.13225774 0.18055382
0.069029994 0.6509168 0.6154432 -0.5428776 -0.23175517 -0.12266208 0.06065934 -0.14516343
0.07550924 -0.114962205 -0.18602028 0.3504983 0.33949596 -0.53087133 0.012382098 -0.32583544
-0.41180298 0.18191579 0.032839842 -0.032239567 0.09305804 -0.21483472 -0.032091204 0.01682648
0.0032398144 -0.36539695 0.10459055 -0.23432253 0.050373603 0.043912686 -0.59958315 -0.12827979
0.8611993 -0.047946285 -0.09708131 0.21561402 -0.09846019 0.18929721 -0.1302458 -0.046420317
-0.18998383 0.26286498 0.29244313 0.14714947 0.042706434 -0.04605727 0.6323455 -0.04913075
0.14563581 0.08350967 0.29458153 -0.04002232 0.03256381 -0.026135169 0.09263963 0.027912233
0.5082823 0.054253858 0.029701654 -0.07076853 0.042864673 -0.4022848 -0.057825413 -0.07957635
-0.20793104 -0.19690956 0.05350129 0.02249776 -0.21406348 -0.06295659 0.29592633 0.06799627
0.10489007 0.100775264 0.89514524 0.084417365 0.28174326 -0.960148 0.28049716 0.49953234
0.15088862 0.2667491 -0.043251667 0.23128167 -0.073023885 -0.022330074 0.03398906 0.253427
-0.2879987 -0.08809241 -0.055351738 0.0999272 0.016752392 0.13893186 0.17416012 0.123431526
-0.034768734 -0.22793664 0.08640488 0.102565646 -0.11454548 -0.054891925 0.057642512 -0.6337738
0.106094204 0.12508143 0.217753 -0.0772918 0.07264142 -0.018858984 0.16626884 -0.01847787
-0.115504295 0.042673435 -0.0543095 0.01234881 0.066259354 -0.08753146 -0.36774752 0.10960774
0.036051407 -0.12087553 0.009007779 -0.08930467 -2.0510297 0.04380896 0.11415053 -0.25382605
0.029025886 0.1967073 0.19122289 -0.080665305 -0.26540118 -0.36057785 0.051485993 0.091534264
-0.07836693 0.05895231 1.0584145 0.050238505 -0.049416114 -0.048707917 0.04049999 0.12151446
-0.16878371 0.047261864 -0.05137876 -0.06708679 -0.08768748 -0.028549863 -0.047571763 -0.10984724
-0.08960452 0.014220919 -0.14392634 0.12372365 0.9572323 0.012731976 -1.9135495 -0.029756028
00000000: 1594 d53e ecea 263e 6e28 e53e 4f64 1c3d
00000010: 44eb 9f3e e317 ccbd d33b f0bd c5bc 3c3d
00000020: 7c5f 49be 4db3 ad3d 50d1 473e a9b7 2c3f
00000030: b362 5cbe 79ed 4ebe f10d df3d 835b 8abe
00000040: ff1a d4bd a1e9 b9bd c282 0f3f 0fb6 073e
00000050: ce43 423e 6f4a 91bd fd1d 6b3e 2545 a93d
00000060: 4a44 683f e5f8 33be 7c3d 8fbd 6738 84bf
00000070: ae83 4bbe 5253 173e c704 ee3c 5fc2 80bf
00000080: 5f8d a8bd bbd9 e3be 47bc 63be 4b52 4f3f
00000090: 06aa bfbe b2c0 44be 29e5 693f 93ab d4bd
000000a0: 3b47 56be 841f 64bd c000 1140 35da 273f
000000b0: 1608 933f 9198 e3bf 5d91 a6be 281c d23e
000000c0: 4576 573d 2aab 60bd 3d81 efbe 0520 e0be
000000d0: 0045 3a3d 9df8 1f3e 3581 833e 32bd 233f
000000e0: da7c 803e 7089 5c3e fa51 2c3b 4c91 873d
000000f0: ee04 133e a946 93be 9f4f b2bc 4162 68be
00000100: f1d8 a3be 2496 043f 2b30 a03d 555f a73d
00000110: 5f6b 4bbe 2567 363e a57e a63e ee94 44be
00000120: b25e 00be 7f82 e63e 9d0b ac3d 9974 d6bd
00000130: 9dde cebe 45ee f5bd e5cb 0b3d c10c 8a3d
00000140: 71c4 87ba 9707 a13a c731 d83e c52a f33d
00000150: e6c0 7ebe 9926 873e 82b8 823e e7bf 153f
00000160: 5e3d 1d3f 0860 1d3c 25cd 253e 04fd 97bd
00000170: 1110 d2be b040 413e 936e 07be 1ae3 383e
00000180: 995f 8d3d 7ca2 263f b08d 1d3f 07fa 0abf
00000190: 3a51 6dbe 4236 fbbd ee75 783d b9a5 14be
000001a0: 97a4 9a3d 4e71 ebbd 1a7c 3ebe 8374 b33e
000001b0: 6ad2 ad3e 2fe7 07bf 48de 4a3c e7d3 a6be
000001c0: d7d7 d2be 2248 3a3e 1283 063d a30d 04bd
000001d0: 3795 be3d a2fd 5bbe 1172 03bd b0d7 893c
000001e0: 1153 543b 4f15 bbbe 9233 d63d 3ff2 6fbe
000001f0: 8d54 4e3d cadd 333d 487e 19bf c75b 03be
00000200: 8f77 5c3f 5363 44bd 91d2 c6bd ecc9 5c3e
00000210: 7fa5 c9bd 21d7 413e 285f 05be 3b23 3ebd
00000220: 1f8b 42be 3d96 863e 1bbb 953e 5aae 163e
00000230: f1ec 2e3d 8ca6 3cbd 65e1 213f 533d 49bd
00000240: 8e21 153e 1e07 ab3d 64d3 963e 72ee 23bd
00000250: a161 053d 6c19 d6bc d9b9 bd3d 32a8 e43c
00000260: ca1e 023f 4b39 5e3d e250 f33c 17ef 90bd
00000270: de92 2f3d 46f8 cdbe 57da 6cbd edf8 a2bd
00000280: e0eb 54be a9a2 49be 2b24 5b3d 394d b83c
00000290: 7533 5bbe 62ef 80bd a883 973e a141 8b3d
000002a0: 9bd0 d63d 4363 ce3d 3d28 653f 03e3 ac3d
000002b0: a740 903e 42cc 75bf 539d 8f3e b4c2 ff3e
000002c0: 8c82 1a3e 5793 883e a928 31bd 1ad5 6c3e
000002d0: 8c8d 95bd 8fed b6bc 1d38 0b3d 2fc1 813e
000002e0: 9174 93be cb69 b4bd 81b8 62bd a2a6 cc3d
000002f0: 503c 893c 2744 0e3e 0857 323e abc9 fc3d
00000300: a969 0ebd 3968 69be 0bf5 b03d f00d d23d
00000310: d296 eabd 5bd6 60bd 8e1a 6c3d 003f 22bf
00000320: eb47 d93d 5915 003e a4fa 5e3e 2a4b 9ebd
00000330: 06c5 943d 287e 9abc 6142 2a3e e75e 97bc
00000340: 848d ecbd 57ca 2e3d a373 5ebd aa52 4a3c
00000350: fcb2 873d b243 b3bd 6749 bcbe 067a e03d
00000360: a4aa 133d 978d f7bd 5d95 133c 5ee5 b6bd
00000370: 1244 03c0 0671 333d c1c7 e93d 7df5 81be
00000380: b2c7 ed3c a36d 493e efcf 433e da33 a5bd
00000390: aae2 87be a99d b8be fae2 523d 5176 bb3d
000003a0: d77e a0bd fa77 713d 207a 873f e4c6 4d3d
000003b0: 8d68 4abd f481 47bd 51e3 253d 93dc f83d
000003c0: a3d5 2cbe a895 413d 8972 52bd cd64 89bd
000003d0: 7e95 b3bd 67e1 e9bc 9cda 42bd 97f7 e0bd
000003e0: 9382 b7bd dcfe 683c 6d61 13be d362 fd3d
000003f0: 2d0d 753f c799 503c 31ef f4bf eac2 f3bc

cell.w_xh_h.weight f4 [128, 256]
0.046485048 -0.04028104 0.30139202 -0.00096989557 0.27891302 -0.04371014 -0.08436121 -0.20952787
-0.50592035 -0.0964603 0.24538416 0.0673917 -0.66101635 -0.10444923 -0.19427904 0.3022259
-0.3891169 -0.72464603 -0.09964239 -0.28865585 0.1577253 0.47602668 0.78859556 0.13650396
-0.22899958 -0.07480744 0.2349693 0.064697705 0.09731177 0.27719456 0.29582268 0.103927195
-0.2415756 0.3985439 -0.059210654 0.0053289635 -0.2734807 -0.12286489 -0.22471288 -0.09727556
-0.33089656 0.34358275 -0.07884306 -0.34776044 -0.08968084 0.07698014 -0.036276225 0.02278946
0.14635693 0.11577321 0.2848655 0.029064214 -0.4786965 -0.3321597 0.0051235817 -0.09281007
0.21589692 0.46769157 0.2866511 0.2660882 -0.9268185 0.04107526 0.08313524 -0.14562404
0.2880115 0.14116572 -0.45481375 0.2611403 -0.39017853 0.7414507 0.1758704 0.094679095
-0.0044312268 -0.20969364 -0.023397835 0.36904922 0.5655536 0.06064544 -0.08259788 0.32866892
0.04279825 -0.2383592 -0.31910324 0.5362447 -0.077585615 -0.25841647 0.059779618 -0.10719106
0.26641878 -0.017927296 -0.2959716 0.16190925 -0.00045393675 0.046465315 -0.059989627 0.44266888
-0.25528264 0.2052571 0.12045234 0.43509415 0.3986689 0.17261295 0.27714688 -0.64829624
0.4432002 0.602277 -0.0035246187 -0.13423008 0.45712924 0.077554874 1.5584381 -0.23445822
-0.14871676 -0.3530391 -0.16320299 0.011126847 0.39147207 -0.06973337 0.3649464 -0.008538282
0.8872015 0.37968904 0.48618197 -0.07406389 0.009393034 0.31520358 -0.025892572 -0.46143475
0.118927546 -0.22518957 -0.019600105 0.16368541 0.3744073 -0.38657328 0.3325068 -0.040446922
0.32766274 -0.10290645 0.21959099 -0.005063741 -0.42315117 0.14298522 0.17782843 0.13912076
0.14031295 -0.32466426 0.091771886 0.053483542 -0.10562097 0.5620573 0.5253529 -0.045303263
0.022421064 -0.18942393 -0.17346233 -0.047680024 0.1914373 -0.3067214 0.4144812 0.5075154
0.13255458 0.62850595 -0.24819985 0.3805581 -0.16038314 0.14469051 -0.08623609 0.15478088
-0.16887943 -0.2189769 -0.1540268 0.2795594 0.32319826 -0.16442066 -0.21406211 -0.0065285983
-0.052881666 -0.4658084 -0.07245976 0.38352376 0.30617654 -0.11777153 -0.5457552 -0.06433444
-0.3254024 -0.431209 0.3211665 -0.073122114 -0.14412542 0.19302493 -0.11187502 0.15352574
0.09985631 0.0744824 -0.2396277 -0.5325793 -0.70797014 0.016645558 -0.3330837 0.5642004
0.11299427 -0.3129294 0.26659885 0.017394304 -0.09249671 -0.1530306 -0.13678657 0.12876081
0.020543486 0.06474877 -0.17775112 -0.20702273 -0.23640776 -0.28713852 0.03324138 -0.09495051
0.4499776 -0.19440532 0.53539145 0.527489 -0.4093165 -0.09925293 -0.25462243 -0.12324522
0.12609144 -0.0054303394 0.23194727 -0.3585 -0.1559277 0.17508465 -0.15263458 -0.3277417
0.25490934 0.2581409 0.3814855 -0.18086356 -0.2038348 0.26672354 0.29854506 -0.31967804
0.08318283 0.15198527 -0.056059204 0.15659449 -0.14522612 -0.32417887 -0.069099985 -0.0004880067
0.31171972 0.027277978 0.14199238 0.18807119 -0.23848772 -0.47608745 -0.04855633 -0.096515134
00000000: 1b67 3e3d bbfd 24bd 0e50 9a3e 9740 7eba
00000010: b0cd 8e3e 6709 33bd 92c5 acbd 798e 56be
00000020: ff83 01bf fa8c c5bd fc45 7b3e a904 8a3d
00000030: 5e38 29bf 7ae9 d5bd 16f1 46be 5abd 9a3e
00000040: 553a c7be 6782 39bf 4f11 ccbd b3ca 93be
00000050: be82 213e c5b9 f33e 66e1 493f b2c7 0b3e
00000060: de7e 6abe a534 99bd cb9b 703e 3b80 843d
00000070: 654b c73d 72ec 8d3e 1276 973e c8d7 d43d
00000080: 985f 77be f20d cc3e df86 72bd 969e ae3b
00000090: aa05 8cbe 96a0 fbbd 221b 66be 6938 c7bd
000000a0: 466b a9be 14ea af3e 7878 a1bd a80d b2be
000000b0: 97aa b7bd c3a7 9d3d 6196 14bd f6b0 ba3c
000000c0: 97de 153e 811a ed3d e4d9 913e 1318 ee3c
000000d0: b517 f5be d610 aabe b8e3 a73b 3513 bebd
000000e0: 1514 5d3e 4575 ef3e efc3 923e b63c 883e
000000f0: fa43 6dbf 883e 283d cf42 aa3d 781e 15be
00000100: 3e76 933e bf8d 103e 59dd e8be 2eb4 853e
00000110: 7bc5 c7be b7cf 3d3f 5f17 343e 1de7 c13d
00000120: d333 91bb eeb9 56be d1ac bfbc 05f4 bc3e
00000130: 1fc8 103f 5a67 783d 1429 a9bd 4b47 a83e
00000140: 384d 2f3d 6f14 74be 8061 a3be 5547 093f
00000150: 35e5 9ebd 2a4f 84be 79db 743d fd86 dbbd
00000160: 0b68 883e 44dc 92bc 9789 97be 8acb 253e
00000170: 5cfe edb9 6a52 3e3d afb7 75bd 7fa5 e23e
00000180: 68b4 82be eb2e 523e b7af f63d a9c4 de3e
00000190: 541e cc3e 73c1 303e 32e6 8d3e bef6 25bf
000001a0: 23eb e23e d32e 1a3f 4afd 66bb 9c73 09be
000001b0: d80c ea3e 17d5 9e3d e67a c73f d115 70be
000001c0: 3549 18be 8ac1 b4be af1e 27be 614d 363c
000001d0: 076f c83e 5ed0 8ebd 41da ba3e 26e4 0bbc
000001e0: a31f 633f 9a66 c23e d8ec f83e cfae 97bd
000001f0: 3de5 193c 5d62 a13e a91c d4bc 2d41 ecbe
00000200: 4990 f33d 1898 66be 6690 a0bc 269d 273e
00000210: 50b2 bf3e efec c5be 553e aa3e acab 25bd
00000220: 69c3 a73e 9ec0 d2bd 76dc 603e bded a5bb
00000230: 45a7 d8be b86a 123e a818 363e ac75 0e3e
00000240: 33ae 0f3e 653a a6be e6f2 bb3d 8f11 5b3d
00000250: cf4f d8bd fde2 0f3f 877d 063f ea8f 39bd
00000260: 61ac b73c 59f8 41be 1ca0 31be 214c 43bd
00000270: 2408 443e 960a 9dbe e136 d43e 87ec 013f
00000280: 63bc 073e c4e5 203f 1a28 7ebe 83d8 c23e
00000290: 7a3b 24be c029 143e 8c9c b0bd e17e 1e3e
000002a0: bbee 2cbe 7b3b 60be 34b9 1dbe 6922 8f3e
000002b0: 3e7a a53e e45d 28be 1933 5bbe daed d5bb
000002c0: 729a 58bd 707e eebe c865 94bd 3a5d c43e
000002d0: 2cc3 9c3e 3332 f1bd 9db6 0bbf c6c1 83bd
000002e0: 259b a6be 6dc7 dcbe ef6f a43e 0cc1 95bd
000002f0: 9d95 13be 54a8 453e bb1e e5bd da35 1d3e
00000300: 7781 cc3d 3b8a 983d f760 75be 1e57 08bf
00000310: 883d 35bf 445c 883c f289 aabe 706f 103f
00000320: 8a69 e73d 4838 a0be a57f 883e 807e 8e3c
00000330: ea6e bdbd 0eb4 1cbe c711 0cbe e0d9 033e
00000340: d04a a83c 019b 843d 6404 36be c4fd 53be
00000350: e014 72be d203 93be 1d28 083d 6a75 c2bd
00000360: 7763 e63e 3012 47be 6a0f 093f 8509 073f
00000370: ef91 d1be 1f45 cbbd df5d 82be fd67 fcbd
00000380: 1d1e 013e fdf0 b1bb 9683 6d3e 508d b7be
00000390: 83ab 1fbe 6449 333e 3d4c 1cbe c3cd a7be
000003a0: 7a83 823e 0b2b 843e 1152 c33e 4c34 39be
000003b0: 12ba 50be fd8f 883e e6da 983e d7ac a3be
000003c0: c25b aa3d 07a2 1b3e 569e 65bd 4e5a 203e
000003d0: 28b6 14be c6fa a5be 4b84 8dbd 27db ffb9
000003e0: ba99 9f3e 1176 df3c 7366 113e bc95 403e
000003f0: 2036 74be bcc1 f3be 01e3 46bd baa9 c5bd

cell.w_xh_h.bias f4 [128]
-0.0060714446 -0.3873346 -0.14127512 -0.16952719 0.047009256 0.06392473 -0.41365534 -0.082951084
0.35181525 -0.07129758 -0.2185199 0.2668714 0.21402246 -0.4371993 -0.21575855 0.3339206
0.57980704 -0.2666372 0.10962458 0.36746147 -0.048183445 0.14013444 0.1288863 0.21544936
-0.105441265 0.21541445 0.03348768 -0.16567631 0.29150054 0.17172264 -0.0017266478 -0.09420101
-0.40850383 -0.45868543 0.1215407 -0.3212424 -0.21134266 0.19267 0.064235345 0.24850069
-0.080074824 0.13562101 0.016874038 -0.0150703555 -0.2044684 0.32687485 -0.28282082 0.2258441
0.53522635 -0.1621835 -0.002366564 0.116503075 0.14126131 -0.55145866 0.25216362 0.44976777
-0.05952799 -0.73219496 -0.08719311 0.41967833 0.19271699 -0.184282 0.61362857 0.071297884
-0.2573965 -0.07636497 -0.23270705 -0.621998 0.09520125 0.012208009 -0.023176866 0.45062312
0.00837307 -0.29017833 0.2708398 -0.029632645 0.17329864 0.5501627 -0.09843247 0.050873004
-0.13691448 -0.4760465 0.407592 0.08283686 -0.15138288 -0.11641139 -0.23248342 0.27790532
-0.2899836 0.17556603 0.76097125 -0.1755001 -0.53963745 0.17035098 0.01840364 0.057151113
0.14591546 0.16314009 -0.107298255 -0.18923959 -0.092938185 0.6929465 -0.4077141 0.18633781
0.3945575 -0.057364907 -0.014529354 -0.07566868 -0.088570476 -0.07599022 -0.21477543 -0.3076295
-0.24806075 -0.27906477 -0.024260934 0.09333014 0.004413392 -0.2425099 -0.23676331 -0.01829956
-0.24995586 -0.011062489 0.5392146 -0.13582179 0.14105627 -0.39595068 0.01385615 -0.6096833
00000000: f8f2 c6bb b850 c6be 6daa 10be 8998 2dbe
00000010: c78c 403d f8ea 823d a2ca d3be 42e2 a9bd
00000020: 2121 b43e 7704 92bd aec3 5fbe 5ea3 883e
00000030: b428 5b3e 96d8 dfbe cfef 5cbe a4f7 aa3e
00000040: 3c6e 143f ac84 88be da82 e03d e923 bc3e
00000050: 015c 45bd 677f 0f3e c5fa 033e c29e 5c3e
00000060: 97f1 d7bd 9b95 5c3e 612a 093d 0da7 29be
00000070: 8f3f 953e 0fd8 2f3e b050 e2ba 76ec c0bd
00000080: 6a27 d1be d1d8 eabe 55ea f83d e279 a4be
00000090: 366a 58be 494b 453e d28d 833d f776 7e3e
000000a0: 45fe a3bd 3ce0 0a3e 6c3b 8a3c a7e9 76bc
000000b0: 2a60 51be 245c a73e e4cd 90be ad43 673e
000000c0: 9804 093f 6e13 26be 5b18 1bbb 2a99 ee3d
000000d0: cea6 103e 652c 0dbf 971b 813e f647 e63e
000000e0: 9fd3 73bd 2171 3bbf 4d92 b2bd 14e0 d63e
000000f0: 9a57 453e 6cb4 3cbe c316 1d3f a004 923d
00000100: 79c9 83be 3d65 9cbd c24a 6ebe 433b 1fbf
00000110: dff8 c23d 1a04 483c 69dd bdbc 13b8 e63e
00000120: 332f 093c 4192 94be 84ab 8a3e 29c0 f2bc
00000130: 3375 313e 76d7 0c3f f696 c9bd 3660 503d
00000140: 4f33 0cbe 5ebc f3be e6af d03e 5fa6 a93d
00000150: 1d04 1bbe 1869 eebd 2210 6ebe 9b49 8e3e
00000160: bb78 94be 95c7 333e 03cf 423f 4cb6 33be
00000170: ae25 0abf 7d70 2e3e 3bc3 963c 4917 6a3d
00000180: dd6a 153e 320e 273e 30bf dbbd 06c8 41be
00000190: 6056 bebd f164 313f e7bf d0be 57cf 3e3e
000001a0: 7103 ca3e 77f7 6abd 870c 6ebc 2ef8 9abd
000001b0: 7064 b5bd c3a0 9bbd 17ee 5bbe 9d81 9dbe
000001c0: a303 7ebe 94e1 8ebe debe c6bc df23 bf3d
000001d0: 379e 903b 8454 78be 1572 72be f5e8 95bc
000001e0: 6ef4 7fbe 713f 35bc f809 0a3f de14 0bbe
000001f0: 0e71 103e 0cba cabe e804 633c 3414 1cbf

head.weight f4 [72, 128]
0.3714181 -0.109208256 -0.24174376 -0.12642726 0.25793877 -0.20061369 -0.00953378 -0.25994742
-0.04654778 -0.3610481 0.1901238 0.42811942 -0.8272178 0.3202304 -0.2559747 0.0169931
0.2906085 -0.27806148 0.19380765 -0.44040075 0.23759152 -0.21484356 0.44549382 0.33293304
-0.49955252 0.19405232 -0.011121075 -0.43021932 0.7453222 -0.87329113 0.5857347 -0.4320177
-0.7418269 -0.15331592 0.17045256 0.5729022 0.17358221 0.5233908 0.098267645 0.7946178
0.36923483 -0.4793617 0.42858347 -0.14673774 0.34358695 0.19620147 -0.19937742 -0.36098626
-0.052450888 -0.58653855 0.7242553 -0.09240076 -0.19092801 -0.05493251 0.56769586 0.41922176
-0.37565076 -0.21111532 -0.27284446 0.15511206 0.2887184 -0.39109948 -0.3697559 -0.3894604
0.21046361 0.23538949 -0.24174654 -0.113408834 0.25500283 0.73896444 -0.25487915 -0.08931122
0.5519439 -0.4033301 -0.2638497 0.5455976 -0.62371755 0.24403033 -0.34230378 0.24328278
-0.3316924 -0.60931283 0.15090422 0.23280095 -0.40305424 0.25154728 -0.36447883 0.09036944
0.06591917 -0.5683167 0.19889805 0.126753 0.024431668 -0.369714 0.16996256 -0.4901063
-0.06777012 -0.43258524 -0.3768192 0.46818826 -0.0445778 -0.7367212 -0.08841293 0.62865263
0.27742627 -0.4908791 0.33944637 0.19677727 -0.11378467 0.3168532 -0.2547981 -0.11412123
0.07213347 0.42067698 0.7698792 0.068755075 0.4303454 0.7780158 -0.24720477 -0.25583243
0.46678415 -0.20397493 0.12591566 -0.9204497 -0.018559402 0.08047585 -0.04834904 0.5139256
0.10064454 -0.40523833 -0.024191123 -0.28064218 0.32333004 -0.069895126 0.019622585 -0.5756067
-0.043947972 -0.61473215 -0.1676933 0.10786167 -0.6616594 0.22059359 -0.06253973 0.32024008
0.21185985 -0.4805068 0.16695704 0.10417191 0.30334654 0.17585503 0.18737541 -0.27507198
-0.22645585 0.15043367 0.61125517 -0.117973186 0.63735723 -0.3625133 0.41863352 -0.36977237
-0.43651903 -0.20390359 0.6595658 0.76066566 -0.19538237 0.3381252 -0.10501194 0.45918632
0.4816947 -0.63147444 0.42949256 -0.5539113 0.5751876 -0.20473094 -0.0065875784 -0.32903597
0.30208543 -0.34236854 0.61503375 -0.026094941 -0.28429568 -0.40494764 0.66905123 -0.004433144
-0.24040544 -0.04909166 -0.23077689 0.16455491 0.34996378 -0.22267523 0.05532163 -0.554518
-0.49834123 0.25678432 -0.35387263 -0.056986995 -0.009584435 0.59187067 0.046622567 0.33677366
0.47863486 -0.5007799 -0.06851792 0.6025578 -0.096512854 0.43350664 -0.28568432 0.48181567
0.092256375 -0.37217423 0.46344915 0.10811837 -0.12960933 0.5290965 -0.26670447 0.039728068
-0.07610412 -0.6089834 -0.01065273 0.3118059 0.021974886 -0.5592423 0.1988395 -0.62366396
0.16257575 -0.5348505 -0.092644915 -0.04443909 -0.33391398 0.31316245 -0.2278782 0.6016247
0.5010615 -0.5071877 0.19857065 0.41259998 0.12692387 0.4772701 -0.5686394 -0.30962333
0.24264029 0.030220699 0.7544808 -0.1325606 0.20899536 0.6732106 -0.7487737 -0.23542032
0.46727148 0.18401258 0.45184472 -0.5340526 0.25206754 -0.14206696 -0.16627981 0.32407904
00000000: 832a be3e 94a8 dfbd ad8b 77be 2676 01be
00000010: 8d10 843e ad6d 4dbe 9233 1cbc d417 85be
00000020: e3a8 3ebd 4cdb b8be d0af 423e 7832 db3e
00000030: 8cc4 53bf 3df5 a33e 1e0f 83be 1d35 8b3c
00000040: a3ca 943e 135e 8ebe 8375 463e 357c e1be
00000050: 314b 733e f3ff 5bbe c417 e43e 3376 aa3e
00000060: 59c5 ffbe a7b5 463e 2b35 36bc b545 dcbe
00000070: 70cd 3e3f 0290 5fbf b6f2 153f 6d31 ddbe
00000080: 5ee8 3dbf d9fe 1cbe 1e8b 2e3e b8a9 123f
00000090: 89bf 313e f1fc 053f 8c40 c93d 126c 4b3f
000000a0: 590c bd3e e66e f5be 4b6f db3e 6b42 16be
000000b0: a1ea af3e 0ae9 483e 9829 4cbe 31d3 b8be
000000c0: bed6 56bd 6427 16bf cc68 393f 9c3c bdbd
000000d0: a282 43be e900 61bd 8454 113f 3ca4 d63e
000000e0: 4c55 c0be 9d2e 58be 45b2 8bbe b2d5 1e3e
000000f0: e6d2 933e 313e c8be a550 bdbe 5b67 c7be
00000100: c683 573e f109 713e 688c 77be e442 e8bd
00000110: bb8f 823e c62c 3d3f 857f 82be cde8 b6bd
00000120: 324c 0d3f 4881 cebe 4f17 87be 49ac 0b3f
00000130: f4ab 1fbf 16e3 793e 7142 afbe 1f1f 793e
00000140: 96d3 a9be edfb 1bbf a386 1a3e 5f63 6e3e
00000150: 205d cebe ceca 803e f89c babe 9d13 b93d
00000160: a100 873d 347d 11bf eeab 4b3e 8acb 013e
00000170: ec24 c83c 274b bdbe aa0a 2e3e 37ef fabe
00000180: 10cb 8abd d07b ddbe 72ee c0be 5fb6 ef3e
00000190: 3697 36bd c399 3cbf d711 b5bd 61ef 203f
000001a0: d10a 8e3e 8154 fbbe eacb ad3e fb7f 493e
000001b0: f007 e9bd 953a a23e e674 82be 64b8 e9bd
000001c0: b6ba 933d f962 d73e ce16 453f 76cf 8c3d
000001d0: 3b56 dc3e 0b2c 473f 3f23 7dbe 78fc 82be
000001e0: 55fe ee3e cede 50be 09f0 003e 97a2 6bbf
000001f0: e309 98bc 86d0 a43d a509 46bd a190 033f
00000200: b91e ce3d 667b cfbe 762c c6bc 55b0 8fbe
00000210: 848b a53e 2d25 8fbd 8bbf a03c f65a 13bf
00000220: ca02 34bd 165f 1dbf cbb7 2bbe 94e6 dc3d
00000230: 8362 29bf 49e3 613e d414 80bd 82f6 a33e
00000240: caf1 583e fd04 f6be c9f6 2a3e 1558 d53d
00000250: 3d50 9b3e 5713 343e 57df 3f3e 3cd6 8cbe
00000260: 0be4 67be 490b 1a3e 387b 1c3f ed9b f1bd
00000270: d829 233f 589b b9be 2257 d63e ce52 bdbe
00000280: 6c7f dfbe 1acc 50be 4ed9 283f fcba 423f
00000290: 5112 48be bf1e ad3e 8010 d7bd 781a eb3e
000002a0: b0a0 f63e 4fa8 21bf 73e6 db3e 22cd 0dbf
000002b0: 7f3f 133f fda4 51be 9ddc d7bb 6777 a8be
000002c0: f1aa 9a3e ee4a afbe da72 1d3f 0fc5 d5bc
000002d0: 348f 91be 4c55 cfbe f146 2b3f e843 91bb
000002e0: d82c 76be 5614 49bd c750 6cbe 1581 283e
000002f0: 742e b33e fa04 64be ef98 623d e4f4 0dbf
00000300: 9526 ffbe 3c79 833e cb2e b5be 326b 69bd
00000310: 0908 1dbc d684 173f 4ef7 3e3d 996d ac3e
00000320: a10f f53e 1d33 00bf 2053 8cbd 3a41 1a3f
00000330: 88a8 c5bd 95f4 dd3e 3745 92be 8bb0 f63e
00000340: e9f0 bc3d 9f8d bebe 3549 ed3e 2a6d dd3d
00000350: 4fb8 04be de72 073f 7d8d 88be e6b9 223d
00000360: 7adc 9bbd 56e6 1bbf ca88 2ebc 06a5 9f3e
00000370: ad04 b43c 812a 0fbf 959c 4b3e 71a8 1fbf
00000380: 427a 263e f6eb 08bf 9ebc bdbd c305 36bd
00000390: c6f6 aabe d456 a03e e758 69be 1404 1a3f
000003a0: 9145 003f 0ed7 01bf 1b56 4b3e 4e40 d33e
000003b0: 55f8 013e bf5c f43e 5a92 11bf f386 9ebe
000003c0: b276 783e 6691 f73c a725 413f f7bd 07be
000003d0: e102 563e 8857 2c3f a2af 3fbf 0612 71be
000003e0: 353e ef3e cb6d 3c3e 3158 e73e acb7 08bf
000003f0: ff0e 813e 007a 11be 4145 2abe b0ed a53e

head.bias f4 [72]
-0.69007516 0.19559652 -0.30044106 -0.83276385 -0.14894263 -1.1756194 -1.3409907 -0.7211194
0.26598632 -0.19629991 0.35062394 -2.5114841 -2.5225983 -0.3434345 -0.68644094 -0.6345929
-0.48931968 -0.3460206 -0.5149563 0.107751556 -0.28062382 -0.5484706 -0.7272111 -0.55523896
0.43382886 -1.1129926 -0.6281284 -0.24018104 -0.6209192 -0.4569977 -0.46549517 -0.8453393
-0.5266102 -0.014696624 -0.2739268 0.023239076 0.14303423 -0.5770254 -0.59908456 -1.659739
-0.5213727 -2.4669566 -2.369789 -2.3697886 -1.6443574 -0.5297686 0.25968504 -0.167058
0.16044141 0.19077311 -0.14310575 -0.32879534 0.30653706 -0.2943359 0.25723875 -0.3980865
-0.54795057 0.07385634 -0.21723409 0.45534697 -0.036377255 0.46807066 -1.0769453 0.060112644
-0.623042 -0.07673216 -0.10668605 -0.2759148 0.0059633465 -0.73696595 -0.70680887 -1.063936
00000000: c4a8 30bf 744a 483e 69d3 99be 0330 55bf
00000010: 6b84 18be b27a 96bf 95a5 abbf 489b 38bf
00000020: 5c2f 883e d802 49be fb84 b33e 28bc 20c0
00000030: 4072 21c0 a6d6 afbe 98ba 2fbf ae74 22bf
00000040: 1c88 fabe 9d29 b1be 2dd4 03bf d9ac dc3d
00000050: edad 8fbe 9268 0cbf 822a 3abf 2424 0ebf
00000060: d11e de3e 8b76 8ebf 06cd 20bf 05f2 75be
00000070: 90f4 1ebf 9afb e9be 6255 eebe 2868 58bf
00000080: edcf 06bf 1cca 70bc 2240 8cbe e05f be3c
00000090: 9177 123e f0b7 13bf 9b5d 19bf 5472 d4bf
000000a0: ae78 05bf 9ee2 1dc0 9faa 17c0 9eaa 17c0
000000b0: 4e7a d2bf ea9e 07bf 70f5 843e 4111 2bbe
000000c0: c14a 243e 075a 433e 508a 12be dd57 a8be
000000d0: 6df2 9c3e 32b3 96be ccb4 833e fed1 cbbe
000000e0: 7d46 0cbf fe41 973d 9d72 5ebe 3d23 e93e
000000f0: 5100 15bd f5a6 ef3e 58d9 89bf ad38 763d
00000100: ae7f 1fbf c025 9dbd 377e dabd b444 8dbe
00000110: 2d68 c33b cda9 3cbf 6df1 34bf 0e2f 88bf

exp_avg f4 [1, 128]
0.004450215 0.0031288695 0.0052863285 0.0013762537 0.008422756 0.0009272351 -0.0020950064 0.005605313
-0.0018933263 0.00061817263 -0.00057540694 -0.005605572 -0.0055249897 -0.0012843712 -0.0019819378 -0.001746271
0.0013065782 -0.00438938 0.0020879316 0.0018065181 -0.00020912607 -0.002526902 0.0019794232 0.0023035165
0.00050269865 -0.0024399974 0.006640448 -0.0028336358 -0.0006990396 -0.0024603803 -0.0016043701 0.00696328
0.0008611204 -0.0013668269 0.003895825 -0.00071037206 0.0040352163 -0.0016954113 -0.003239175 0.0035490973
0.0006406841 -0.00056422944 0.00045227422 -0.0044773165 0.0019228915 -0.0018567966 -0.0029631925 0.0003481697
-0.0034865492 -0.004175792 0.0012134024 9.183102e-05 -0.0011421036 -0.004937099 0.0002504072 -0.0018902685
-0.004960095 0.0035289982 0.0017522351 0.0009381798 0.0068022967 -0.00038211647 -0.00027819074 -0.007328731
0.00013205831 0.0036098326 0.0033174052 0.0052213124 0.0032773006 -0.0075442907 -0.0058572385 0.0011524699
0.0036530567 0.0019132236 0.0075345896 0.0034907626 -0.003385762 0.0022786409 -0.0008928542 0.0027977168
0.00029075993 0.0011843403 0.0025023802 0.0012381801 0.00059075013 0.006175011 -0.004920542 0.00093862606
-0.0027218421 -0.0008146646 0.00018413964 -0.0058213193 -0.0012212708 0.0020683187 0.0068214033 -0.00031718877
-0.0029070703 -0.004879186 -0.00077178347 0.003836406 -0.000590623 0.004457885 0.007125746 0.0032703814
-0.007120053 0.0010406133 -0.002681212 0.0057167355 -0.0005550209 -0.001808076 0.0004923653 0.0023147406
0.005722766 0.0018259339 0.00040991209 0.0011154677 0.0007864315 0.00033531763 -0.0064269137 -0.0051738294
-0.00089586346 -0.0035093087 0.0010927732 -0.0005484995 0.0012162351 0.0069811633 -0.004739024 0.00026871497
00000000: 1cd3 913b b80d 4d3b f038 ad3b 6963 b43a
00000010: 99ff 093c b211 733a 604c 09bb c6ac b73b
00000020: 7d29 f8ba dd0c 223a e8d6 16ba f2ae b7bb
00000030: f90a b5bb 5958 a8ba 66e3 01bb 22e3 e4ba
00000040: 7d41 ab3a cad4 8fbb aed5 083b b0c8 ec3a
00000050: da48 5bb9 619a 25bb 36b9 013b 98f6 163b
00000060: 89c7 033a 5de8 1fbb 1d98 d93b 85b4 39bb
00000070: c13f 37ba 553e 21bb ba49 d2ba 3a2c e43b
00000080: d0bc 613a 1a27 b3ba 1951 7f3b 4338 3aba
00000090: d939 843b 9038 deba 5748 54bb f997 683b
000000a0: 95f3 273a cce8 13ba 381f ed39 74b6 92bb
000000b0: 8809 fc3a c15f f3ba 1f32 42bb 8c8a b639
000000c0: 977e 64bb 15d5 88bb 070b 9f3a 6795 c038
000000d0: a3b2 95ba 63c7 a1bb 1649 8339 e3c2 f7ba
000000e0: 4b88 a2bb c446 673b 41ab e53a 2ef0 753a
000000f0: cde5 de3b ce56 c8b9 21da 91b9 da25 f0bb
00000100: 2279 0a39 f192 6c3b d368 593b 8b17 ab3b
00000110: fbc7 563b 1936 f7bb 14ee bfbb 790e 973a
00000120: 1f68 6f3b 22c5 fa3a b8e4 f63b 47c5 643b
00000130: a9e3 5dbb 4055 153b 6e0e 6aba e659 373b
00000140: 2371 9839 de3b 9b3a f9fe 233b 6e4a a23a
00000150: 92dc 1a3a bf57 ca3b 7f3c a1bb 210e 763a
00000160: ef60 32bb 378f 55ba 9c15 4139 c4c0 bebb
00000170: 0c13 a0ba a18c 073b 1486 df3b 5b4c a6b9
00000180: 8c84 3ebb 94e1 9fbb 8351 4aba 366c 7b3b
00000190: 0ad4 1aba 7313 923b 177f e93b e553 563b
000001a0: 554f e9bb 3065 883a 46b7 2fbb 7453 bb3b
000001b0: d27e 11ba f7fc ecba 1312 013a e7b2 173b
000001c0: 0a86 bb3b 2d54 ef3a 78e9 d639 e334 923a
000001d0: 8628 4e3a 92cd af39 dc98 d2bb 3a89 a9bb
000001e0: 61d8 6aba 6efc 65bb 623b 8f3a 2ec9 0fba
000001f0: 146a 9f3a 3ec2 e43b d149 9bbb 50e2 8c39

exp_avg_sq f4 [1, 128]
0.00023392949 0.0002024563 0.00029110146 0.00019052021 0.00030376765 0.00037200408 0.0003401377 0.00029398917
0.000338595 0.00022239097 0.00027913804 0.00028491867 0.00033922266 0.00026362427 0.00025464938 0.00029388833
0.00031924658 0.00030446617 0.00028372114 0.0004459656 0.00047461645 0.0003361572 0.00027689108 0.00034281902
0.0003242537 0.00057197106 0.0003525864 0.00029502393 0.00024377953 0.00019126762 0.00025854696 0.00028627037
0.00038130273 0.00026247627 0.00031284353 0.0003222382 0.00034552658 0.00034638742 0.0003401117 0.00025724657
0.00040453178 0.00043463474 0.0002918744 0.00024168553 0.00037904686 0.00035524459 0.00022249985 0.00025615422
0.00027209622 0.00027480721 0.00040255985 0.00024306006 0.00025849993 0.00030552465 0.00032854528 0.0002558388
0.000351786 0.00052441325 0.0003118298 0.00030270423 0.00028731412 0.00037493638 0.00025636057 0.00020894132
0.00029463516 0.00042253462 0.00021402846 0.00032605522 0.0003258607 0.00031277497 0.00033006552 0.00023756802
0.0003834443 0.00029275988 0.0003108448 0.000335385 0.00035042033 0.0002773734 0.0003549409 0.00034590537
0.0003785251 0.00036291784 0.00031902696 0.00033710673 0.00045585827 0.00025885162 0.00039157752 0.00030624392
0.0004808161 0.0003468024 0.00020708847 0.0003161876 0.0002668777 0.00025669145 0.00028059533 0.00031125097
0.00026971768 0.00036955613 0.0003416041 0.000385023 0.00031936518 0.00025655172 0.00038648045 0.00038175943
0.00030552878 0.00024370255 0.00037205307 0.00025231033 0.0003363102 0.00032972248 0.00019776657 0.0002534948
0.00032789685 0.00040965827 0.00022534863 0.0002653967 0.00025584866 0.00029243343 0.00028476818 0.00040813355
0.00030461824 0.00044533215 0.00029598683 0.00025926705 0.00037589483 0.00029723317 0.00027001312 0.00037882887
00000000: f84a 7539 734a 5439 fa9e 9839 61c6 4739
00000010: 0143 9f39 8b09 c339 8254 b239 8f22 9a39
00000020: 7485 b139 9f31 6939 4659 9239 2361 9539
00000030: b2d9 b139 0d37 8a39 7682 8539 0615 9a39
00000040: 8d60 a739 c2a0 9f39 68c0 9439 7dd0 e939
00000050: f1d5 f839 413e b039 b12b 9139 64bc b339
00000060: 9800 aa39 54f0 153a 58db b839 71ad 9a39
00000070: 129f 7f39 038f 4839 968d 8739 8f16 9639
00000080: 96e9 c739 f89c 8939 2605 a439 14f2 a839
00000090: cb27 b539 559b b539 0551 b239 0ddf 8639
000000a0: 5617 d439 b0df e339 b806 9939 f76c 7d39
000000b0: cfba c639 1f40 ba39 d94e 6939 704c 8639
000000c0: 23a8 8e39 0014 9039 ab0e d339 f0dd 7e39
000000d0: 4687 8739 d32e a039 9a40 ac39 1a22 8639
000000e0: eb6f b839 c778 093a 167d a339 46b4 9e39
000000f0: a6a2 9639 1c93 c439 2268 8639 4217 5b39
00000100: 4379 9a39 a387 dd39 d46c 6039 64f2 aa39
00000110: 48d8 aa39 f2fb a339 a50c ad39 ae1b 7939
00000120: 0609 c939 917d 9939 e2f8 a239 9dd6 af39
00000130: 9fb8 b739 6d6c 9139 5c17 ba39 a25a b539
00000140: c774 c639 0246 be39 1343 a739 b3bd b039
00000150: 4300 ef39 7ab6 8739 a54c cd39 5d8f a039
00000160: 0b16 fc39 08d3 b539 e325 5939 fbc5 a539
00000170: b8eb 8b39 8b94 8639 de1c 9339 662f a339
00000180: e568 8d39 fcc0 c139 5419 b339 eadc c939
00000190: 7870 a739 ca81 8639 87a0 ca39 e226 c839
000001a0: 612f a039 688a 7f39 1e10 c339 8548 8439
000001b0: ca52 b039 9ade ac39 8f5f 4f39 7fe7 8439
000001c0: 92e9 ab39 67c7 d639 904b 6c39 f124 8b39
000001d0: 6d23 8639 c051 9939 f04c 9539 c2fa d539
000001e0: 2bb5 9f39 787b e939 ae2e 9b39 3cee 8739
000001f0: c013 c539 f6d5 9b39 8c90 8d39 8d9d c639

exp_avg f4 [72, 128]
0.00026271312 0.0007398372 -0.00027539986 0.0008527887 -0.00090254087 -0.00034297822 -0.001287996 0.0014414703
-0.0018148768 -0.0018521167 -0.00518486 0.0020735245 0.00038771538 0.000611374 0.0019153554 0.001362446
-0.0021821498 -0.0014906263 -0.00038979057 0.0007007794 0.0025850176 -0.00058227684 0.00074751815 -0.0005122474
-0.0023084655 -0.000967319 0.0007511077 0.0010517181 -0.0013491022 -0.00072780176 0.0018720278 -0.0028298323
-0.00084581785 0.0013725886 -0.00019534506 0.0011467938 0.002137152 0.0025687814 0.0004036808 0.004695117
0.00043560477 0.0047828425 -0.0014054992 0.001190799 0.00033321977 0.0013973899 0.000749945 0.0014559448
0.0051237065 -0.0016264113 0.0010460957 0.0004198688 -0.0038441464 -0.0031439208 0.0015406122 -0.0014433694
-0.0014184872 -0.0011505616 0.0018949412 0.002149708 -0.0059693647 -0.00064338197 0.00064752914 -0.00020492358
0.0033272698 0.0024894467 -0.0015277583 0.00060220796 -0.0043474096 0.003643843 0.0028939627 -0.00085076265
-0.0004918391 -0.0007228569 0.00031885135 -0.0014625848 -0.0003452306 0.001539128 -0.00078839104 0.00013580895
-0.0010510845 0.00076564396 -0.0014456762 0.00017099269 0.0024806918 -0.002575381 -0.00059516646 0.00071775785
0.0005022425 -0.0029528523 0.0012747732 -0.0028981625 0.0006057388 0.0013789743 0.00045464523 -0.0010607162
-0.002197786 0.004506641 -0.0006567392 0.00093876384 0.00077017717 0.001994234 0.0019302971 -0.0019108786
-0.0025898963 -0.0013120889 0.00066073117 -0.00057612936 -0.0029313364 0.0010634726 0.0045554754 0.0019940399
-0.000999111 -0.0029885694 -0.003503381 0.0013236476 0.00462363 -0.000235936 0.0014228668 -0.0037513804
-0.0044482136 -0.002001216 -0.000767171 0.00018390676 0.0013690538 0.0052379444 -0.0006084542 -0.002225968
0.0028929051 0.0009271567 0.00519582 0.005136869 -0.00025038482 -1.4729861e-05 0.0017186905 -0.00059124466
-0.0038647535 0.002795555 -0.0041981945 0.0018633463 -0.00033537118 0.0016085692 0.0062459726 0.00043345973
-0.001720047 0.009496711 0.0040745074 0.0039352556 0.0027980753 -0.0024838168 -0.0046748254 -0.0032239957
0.0021867927 -0.0020259582 -0.0013356463 -0.0026885108 -0.0026216016 -0.0017585512 0.00043728092 -0.0040593864
0.0020505912 -0.0051411972 -0.009452507 -0.00079378445 0.003386096 -0.006992164 0.005190024 -0.0018327713
0.0032399183 -0.0029724052 0.0037352492 -0.0011094405 0.0050389655 -0.0038450994 0.0030570042 0.004010631
0.000337523 -0.0011992942 -0.0031171187 0.00068210444 0.0057890825 0.0018596053 0.0054251873 -0.00037303683
0.00036056482 0.00056329917 -0.0032046144 -0.0014536487 0.0026049525 -0.003081119 0.0019873756 -0.0015819259
-0.002172493 0.0067189736 -0.0018412512 0.003294244 -0.0075329104 -0.003112463 0.0016774067 -0.00020248615
0.0016684739 0.004784034 -0.00049600354 -0.006437691 -0.0043738387 0.0054824892 0.004208053 -0.0011799696
0.0048463084 0.0030488463 -0.0017822767 0.0038139047 -0.0036094568 0.00095661596 0.003604837 0.0023496377
-0.0022254782 0.0046697194 -0.0006401691 -0.006026704 -0.0033383165 -0.0038060052 -0.0036402298 -0.0026760784
0.004476354 -0.0002783061 0.001505015 -5.947002e-05 0.002062914 -0.0023227877 0.0023477804 0.0016928029
-0.004946986 0.0029260733 0.0020428894 0.0065602357 0.0011587518 0.0020897565 -0.0025989285 -0.0029220402
-0.0029949276 6.158009e-05 0.0005224749 -0.0006276993 -0.003531495 -0.0062595434 0.005715259 0.00068118476
-0.004348146 -0.007315847 0.0018955771 -0.0016720875 0.00085141446 0.001948629 -0.0014273791 -0.0035642127
00000000: c2bc 8939 a2f1 413a 8b63 90b9 ae8d 5f3a
00000010: 7e98 6cba c2d1 b3b9 f9d1 a8ba b8ef bc3a
00000020: 29e1 edba b9c2 f2ba c2e5 a9bb f8e3 073b
00000030: 4746 cb39 9d44 203a aa0c fb3a 1a94 b23a
00000040: 6602 0fbb 1e61 c3ba ce5c ccb9 82b4 373a
00000050: 6669 293b f0a3 18ba 18f5 433a 5748 06ba
00000060: a049 17bb ae93 7dba fce5 443a ced9 893a
00000070: 5cd4 b0ba f3c9 3eba d45e f53a b574 39bb
00000080: e0b9 5dba 6ee8 b33a 8ad5 4cb9 0450 963a
00000090: 760f 0c3b 0059 283b 1fa5 d339 7fd9 993b
000000a0: e261 e439 64b9 9c3b ba38 b8ba 9614 9c3a
000000b0: 00b4 ae39 a028 b73a f597 443a 67d5 be3a
000000c0: c4e4 a73b 4f2d d5ba 261d 893a d621 dc39
000000d0: 13ee 7bbb 3d0a 4ebb 5eee c93a 712f bdba
000000e0: 88ec b9ba 71ce 96ba ad5f f83a 1ee2 0c3b
000000f0: a99a c3bb a2a8 28ba f2be 293a c1e0 56b9
00000100: 530e 5a3b fc25 233b 103f c8ba 7edd 1d3a
00000110: b774 8ebb 8bcd 6e3b a3a8 3d3b b705 5fba
00000120: c3ee 00ba 1b7e 3dba 812b a739 34b4 bfba
00000130: 1100 b5b9 91bc c93a 07ac 4eba f067 0e39
00000140: 8bc4 89ba 7fb5 483a d87c bdba 804c 3339
00000150: 1a93 223b b9c7 28bb f204 1cba ea27 3c3a
00000160: eca8 033a a484 41bb 4a16 a73a 19ef 3dbb
00000170: 71ca 1e3a b3be b43a 735d ee39 bb07 8bba
00000180: bb08 10bb 72ac 933b 0629 2cba 6017 763a
00000190: b7e5 493a b2b1 023b 0602 fd3a 7276 faba
000001a0: 40bb 29bb 66fa abba eb34 2d3a 6307 17ba
000001b0: aa1b 40bb 3864 8b3a 1946 953b 70ae 023b
000001c0: 9af4 82ba e0db 43bb fb98 65bb 3e7e ad3a
000001d0: d281 973b 9665 77b9 7d7f ba3a b8d9 75bb
000001e0: 52c2 91bb d526 03bb f91b 49ba 18d7 4039
000001f0: d371 b33a 10a3 ab3b ac80 1fba 8ce1 11bb
00000200: e596 3d3b 6f0c 733a b241 aa3b 2e53 a83b
00000210: 1546 83b9 4520 77b7 af45 e13a c2fd 1aba
00000220: ce47 7dbb a135 373b 0291 89bb 873b f43a
00000230: c2d4 afb9 a0d6 d23a 04ab cc3b fb41 e339
00000240: 3373 e1ba 1898 1b3c 7283 853b 51f3 803b
00000250: ea5f 373b 88c7 22bb 472f 99bb ac49 53bb
00000260: 4b50 0f3b f0c5 04bb da10 afba ba31 30bb
00000270: 2dcf 2bbb 307f e6ba da42 e539 9a04 85bb
00000280: 3663 063b 7d77 a8bb b0de 1abc f915 50ba
00000290: 44e9 5d3b 861e e5bb 1411 aa3b 9a39 f0ba
000002a0: cf54 543b afcc 42bb 15cb 743b a56a 91ba
000002b0: e81d a53b 10fe 7bbb 0558 483b 9c6b 833b
000002c0: 92f5 b039 a331 9dba 9348 4cbb 41cf 323a
000002d0: 58b2 bd3b 00be f33a c5c5 b13b 2894 c3b9
000002e0: 310a bd39 5eaa 133a 8204 52bb 5b88 beba
000002f0: dab7 2a3b 99ec 49bb a13e 023b a058 cfba
00000300: 6260 0ebb d62a dc3b 2356 f1ba 3ee4 573b
00000310: a2d6 f6bb 77fa 4bbb 6edc db3a 7652 54b9
00000320: b2b0 da3a 63c3 9c3b 3c06 02ba 44f3 d2bb
00000330: 6b52 8fbb 74a6 b33b b5e3 893b 36a9 9aba
00000340: c8cd 9e3b 27cf 473b 489b e9ba b4f2 793b
00000350: a38c 6cbb 69c5 7a3a 213f 6c3b 61fc 193b
00000360: 54d9 11bb 7204 993b 05d1 27ba a87b c5bb
00000370: a8c7 5abb 2c6e 79bb ec90 6ebb 2561 2fbb
00000380: 61ae 923b 9de9 91b9 ec43 c53a 736f 79b8
00000390: f431 073b e939 18bb 38dd 193b 0ae1 dd3a
000003a0: 541a a2bb 5dc3 3f3b ffe1 053b 3ff7 d63b
000003b0: 42e1 973a 4cf4 083b c952 2abb b37f 3fbb
000003c0: 8c46 44bb 8f24 8138 b2f6 083a 308c 24ba
000003d0: a870 67bb db1c cdbb 1147 bb3b 8991 323a
000003e0: e47a 8ebb c6b9 efbb 0375 f83a f229 dbba
000003f0: 7531 5f3a 2469 ff3a e516 bbba 9195 69bb

exp_avg_sq f4 [72, 128]
1.9749117e-05 6.9302565e-05 3.9864048e-05 6.1502855e-05 3.67096e-05 3.526557e-05 3.7648733e-05 3.780624e-05
5.18418e-05 3.130914e-05 4.3220796e-05 3.5946545e-05 4.687654e-05 5.675461e-05 2.8958366e-05 4.0944833e-05
6.326602e-05 4.923133e-05 3.5140856e-05 0.000105948966 6.1084706e-05 7.795006e-05 3.9721843e-05 9.393248e-05
2.8781355e-05 6.345278e-05 3.9865736e-05 2.8783114e-05 5.4368065e-05 2.6722239e-05 3.7868125e-05 3.1619194e-05
3.3419015e-05 3.2359694e-05 3.364731e-05 3.7022153e-05 3.963268e-05 5.942921e-05 2.871531e-05 6.555332e-05
6.527301e-05 0.000104857405 1.9474588e-05 3.9441384e-05 2.0058837e-05 1.824019e-05 4.34287e-05 2.9338926e-05
5.633982e-05 5.069406e-05 4.466054e-05 3.902766e-05 5.2898587e-05 7.441441e-05 4.4852746e-05 4.4363518e-05
3.785683e-05 4.8859954e-05 4.205601e-05 4.430106e-05 0.00011884043 4.0978946e-05 3.3333774e-05 4.112662e-05
4.9688173e-05 6.767889e-05 4.2703377e-05 4.8203954e-05 7.970487e-05 5.456358e-05 3.56314e-05 2.3069742e-05
9.3280614e-05 3.550757e-05 4.3825927e-05 5.8691367e-05 3.623001e-05 5.1680905e-05 6.132272e-05 3.460459e-05
5.0294737e-05 5.0155435e-05 4.9415812e-05 5.7631954e-05 7.016117e-05 3.7259742e-05 2.9603594e-05 3.075184e-05
3.8394854e-05 3.9181832e-05 4.345632e-05 4.4305514e-05 3.7754904e-05 5.9034148e-05 4.8588263e-05 4.487038e-05
6.61546e-05 3.854915e-05 2.6251952e-05 4.1783387e-05 4.0632363e-05 3.2707605e-05 6.338802e-05 7.4121446e-05
7.4304655e-05 5.5367753e-05 4.0224997e-05 3.8144586e-05 4.0854677e-05 3.4758454e-05 8.6471504e-05 4.8157977e-05
4.2515127e-05 6.277757e-05 5.7918576e-05 3.964286e-05 8.86206e-05 5.3832293e-05 4.8627222e-05 5.104478e-05
7.310512e-05 3.3206717e-05 4.0259816e-05 5.7041867e-05 2.7733367e-05 7.2382536e-05 3.536944e-05 4.290646e-05
0.00012351364 0.0004272016 0.00039454238 0.00053176814 0.00024194262 0.00032341885 0.00033076073 0.00035850258
0.0004092528 0.0002571341 0.000308017 0.00048289864 0.00046304698 0.00042553988 0.0001695551 0.00039969626
0.0004358251 0.0004316057 0.0002239573 0.0009403787 0.000858237 0.00068560167 0.00045442287 0.0006992951
0.00020489443 0.00048545256 0.00048103344 0.00024160302 0.0003945445 0.00017892917 0.00043683583 0.0003274738
0.00035200425 0.0002460277 0.0003835301 0.0004036488 0.00035151796 0.00040705502 0.00031710687 0.00042676
0.00045706052 0.00072969636 0.00020215228 0.0003304271 0.00031469367 0.00014501916 0.0003588498 0.00021698186
0.00045394557 0.00029207213 0.00049577747 0.000245373 0.00036053985 0.00061541906 0.00044595147 0.00034822183
0.0003922498 0.00038079053 0.00042272962 0.000517138 0.00082245504 0.00045818856 0.0003069251 0.0003751729
0.00047834104 0.00055 0.00049161125 0.0004591828 0.00059084763 0.000681023 0.000397957 0.00013366694
0.0007721444 0.00030006425 0.00035602934 0.00071817666 0.00033471166 0.0004995869 0.00044350052 0.00047136383
0.00060154864 0.00044774107 0.0005242866 0.0004680442 0.0004160183 0.00036771374 0.00023645206 0.0003901317
0.0003504876 0.0004442969 0.00038678854 0.0003848476 0.0001054553 0.0005239173 0.00043629814 0.00030240102
0.0006292976 0.00025771835 0.0002583956 0.0004895441 0.00018546642 0.00021058465 0.0005047149 0.0004634068
0.000719084 0.00026768463 0.00015042638 0.00039340026 0.00039803117 0.0002936105 0.00071690796 0.00038341124
0.00041384294 0.00045879287 0.00037655619 0.0005573657 0.00066871097 0.0004943152 0.0006816932 0.0003576503
0.0005583957 0.00032821106 0.00042117707 0.00059670606 0.0001241234 0.00032428984 0.0001033964 0.0003963816
00000000: e8aa a537 8856 9138 b233 2738 18fb 8038
00000010: a2f8 1938 1eea 1338 05e9 1d38 2492 1e38
00000020: b570 5938 ef51 0338 fa47 3538 4fc5 1638
00000030: 4d9d 4438 cc0b 6e38 9eeb f237 2ebc 2b38
00000040: b0ad 8438 bd7d 4e38 3564 1338 eb30 de38
00000050: 9a1a 8038 1f79 a338 019b 2638 9efd c438
00000060: 7d6f f137 f411 8538 8235 2738 4473 f137
00000070: 4409 6438 9229 e037 97d4 1e38 da9e 0438
00000080: 652b 0c38 f5b9 0738 8620 0d38 3c48 1b38
00000090: 443b 2638 a143 7938 a9e1 f037 ac79 8938
000000a0: 2ee3 8838 e4e6 db38 5c5d a337 dd6d 2538
000000b0: 0644 a837 8202 9937 3627 3638 dd1c f637
000000c0: 6c4e 6c38 55a0 5438 e451 3b38 a1b1 2338
000000d0: 6ddf 5d38 ef0e 9c38 4520 3c38 f712 3a38
000000e0: 76c8 1e38 faee 4c38 4c65 3038 e7cf 3938
000000f0: f839 f938 cfe0 2b38 decf 0b38 5f7f 2c38
00000100: 4568 5038 d4ee 8d38 671c 3338 9a2e 4a38
00000110: 3a27 a738 33db 6438 ed72 1538 e585 c137
00000120: a69f c338 f7ed 1438 bbd1 3738 602b 7638
00000130: adf5 1738 f3c3 5838 629a 8038 6524 1138
00000140: 90f3 5238 fd5d 5238 d343 4f38 d7b9 7138
00000150: 7e23 9338 5847 1c38 3c55 f837 89fb 0038
00000160: 290a 2138 2c57 2438 de44 3638 afd4 3938
00000170: 055b 1e38 6f9b 7738 40cb 4b38 3433 3c38
00000180: 7bbc 8a38 d6af 2138 a337 dc37 9240 2f38
00000190: ab6c 2a38 862f 0938 2fef 8438 a671 9b38
000001a0: 02d4 9b38 ac3a 6838 43b7 2838 70fd 1f38
000001b0: 605b 2b38 9bc9 1138 0958 b538 3cfd 4938
000001c0: 4552 3238 74a7 8338 99ed 7238 3246 2638
000001d0: d3d9 b938 fcc9 6138 15f5 4b38 ea18 5638
000001e0: 0350 9938 7147 0b38 a6dc 2838 3d40 6f38
000001f0: f4a4 e837 14cc 9738 a659 1438 76f6 3338
00000200: 7183 0139 07fa df39 95da ce39 5b66 0b3a
00000210: fab1 7d39 8b90 a939 f469 ad39 67f5 bb39
00000220: fb90 d639 f4cf 8639 587d a139 8f2d fd39
00000230: 1dc5 f239 ff1a df39 9aca 3139 538e d139
00000240: 747f e439 2349 e239 14d6 6a39 bf83 763a
00000250: 4ffb 603a f3b9 333a 9b3f ee39 e650 373a
00000260: eed8 5639 5784 fe39 3733 fc39 d156 7d39
00000270: deda ce39 ef9e 3b39 1d07 e539 cab0 ab39
00000280: 368d b839 47fd 8039 8a14 c939 d3a0 d339
00000290: f14b b839 006a d539 5d41 a639 c2be df39
000002a0: a0a1 ef39 1849 3f3a d7f8 5339 2d3d ad39
000002b0: 78fd a439 4910 1839 0124 bc39 a085 6339
000002c0: 8bff ed39 4221 9939 10f7 013a 68a5 8039
000002d0: d706 bd39 1354 213a 98ce e939 8b91 b639
000002e0: e1a6 cd39 d7a4 c739 cfa1 dd39 8b90 073a
000002f0: 069a 573a 0739 f039 caea a039 dbb2 c439
00000300: d9c9 fa39 e02d 103a 79df 003a 79be f039
00000310: 1de3 1a3a ae86 323a e2a4 d039 f228 0c39
00000320: bc69 4a3a f151 9d39 73a9 ba39 0544 3c3a
00000330: 3d7c af39 b6f6 023a a285 e839 6221 f739
00000340: 3fb1 1d3a cabe ea39 4770 093a d463 f539
00000350: 081d da39 b4c9 c039 1ef0 7739 978a cc39
00000360: a6c1 b739 85f0 e839 e1c9 ca39 5fc5 c939
00000370: e227 dd38 7f57 093a f2be e439 948b 9e39
00000380: 72f7 243a 5f1e 8739 4579 8739 c054 003a
00000390: c379 4239 63d0 5c39 d84e 043a 68f5 f239
000003a0: e980 3c3a 0658 8c39 c6bb 1d39 4a41 ce39
000003b0: d7ae d039 bcef 9939 e1ee 3b3a 9604 c939
000003c0: 0ff9 d839 238a f039 846c c539 2e1c 123a
000003d0: 6f4c 2f3a ee94 013a a8b3 323a 0383 bb39
000003e0: 4d61 123a be13 ac39 6ed1 dc39 446c 1c3a
000003f0: 1f27 0239 7205 aa39 85d6 d838 70d1 cf39
